app/src/main/assets/Asthma.tflite (tflite, 105148 bytes, 9 tensors)

conv2d/Conv2D_bias f4 [129]
0.4930957 0.18528403 -0.0029501922 0.5403566 0.07001906 0.87995 1.0287521 0.47650713
0.22984464 1.0434519 0.73988223 0.8340646 0.29806358 0.34819874 1.1171114 1.23717
0.8477504 1.1302516 0.89886767 1.0378007 1.0612159 0.8710416 0.59036356 1.1082851
0.88798445 0.7359123 0.43013984 0.9111792 0.32270107 0.5453462 1.0457685 0.7006522
-0.04146249 0.8106516 0.84877217 0.044468842 0.8877447 0.92377585 0.83105874 0.7539165
0.87073827 0.6142934 0.13217169 0.36968204 0.44650662 0.2411455 0.84391415 0.23377189
0.8848926 1.0895946 0.8266608 0.41921732 0.4465853 0.2639737 0.08931038 0.2879316
0.3695619 0.40917456 0.5190426 0.94797957 1.0351837 0.8867043 0.005616396 0.9326225
0.8213668 0.54124135 0.41398957 1.2463833 0.4036625 0.1398246 0.7756474 0.3757553
0.47999072 0.4041548 0.91102326 0.14057344 1.0133907 0.31840676 0.8341247 0.22331865
0.12035263 0.85872865 0.28700632 0.6515308 0.9467387 1.228867 0.9986754 0.74740565
0.741341 0.41088897 1.0543798 0.33790115 0.8682783 0.77643275 0.9994526 0.5161162
0.86296004 0.3448587 0.17410354 0.9948483 0.87552494 1.0437866 0.29727158 0.8528647
0.40080205 1.2756273 0.41222212 0.31072468 0.88661337 0.39326 0.35268655 0.41919088
0.88361835 0.93472695 0.42323408 0.2873465 0.07899719 0.2962712 0.4289463 0.31702676
0.90521365 0.7260575 1.2147211 -0.0027348672 0.32687637 0.78838253 0.41885006 0.8216076
0.3955023
00000000: 0a77 fc3e 19bb 3d3e 0358 41bb cf54 0a3f
00000010: 2766 8f3d 6744 613f 26ae 833f bef8 f33e
00000020: 655c 6b3e d58f 853f ec68 3d3f 4285 553f
00000030: ca9b 983e 1b47 b23e 82fd 8e3f 965b 9e3f
00000040: 2c06 593f 16ac 903f 311c 663f a7d6 843f
00000050: ecd5 873f 95fc 5e3f 1122 173f 49dc 8d3f
00000060: f352 633f c064 3c3f 4a3b dc3e 0a43 693f
00000070: 1339 a53e cf9b 0b3f bedb 853f f15d 333f
00000080: 92d4 29bd dd86 4f3f 2249 593f f624 363d
00000090: 3d43 633f 937c 6c3f 44c0 543f ac00 413f
000000a0: b4e8 5e3f 5542 1d3f 0458 073e f746 bd3e
000000b0: 849c e43e d9ee 763e c20a 583f e661 6f3e
000000c0: 5288 623f d677 8b3f 0ba0 533f a7a3 d63e
000000d0: d4a6 e43e 9027 873e 5ce8 b63d c56b 933e
000000e0: 3837 bd3e 547f d13e fadf 043f caae 723f
000000f0: e680 843f 0eff 623f bf09 b83b 59c0 6e3f
00000100: 1845 523f cb8e 0a3f 71f6 d33e 7d89 9f3f
00000110: daac ce3e 2e2e 0f3e d490 463f 0063 c03e
00000120: 58c1 f53e 61ed ce3e d238 693f 7cf2 0f3e
00000130: c9b6 813f 3606 a33e 3289 553f a5ad 643e
00000140: 717b f63d a4d5 5b3f 7ef2 923e b9ca 263f
00000150: 785d 723f 844b 9d3f 31a9 7f3f fa55 3f3f
00000160: 86c8 3d3f 0a60 d23e ebf5 863f 6101 ad3e
00000170: 7d47 5e3f 4cc4 463f 20dc 7f3f 3120 043f
00000180: f3ea 5c3f 5291 b03e 3348 323e 61ae 7e3f
00000190: 6722 603f cd9a 853f fb33 983e 5755 5a3f
000001a0: ed35 cd3e c147 a33f c70e d33e 4e17 9f3e
000001b0: 18f9 623f 6059 c93e 5593 b43e 30a0 d63e
000001c0: d034 623f 444a 6f3f 23b2 d83e 151f 933e
000001d0: 47c9 a13d dcb0 973e d99e db3e 5551 a23e
000001e0: 15bc 673f e8de 393f fb7b 9b3f 753b 33bb
000001f0: 575c a73e 70d3 493f 8473 d63e e054 523f
00000200: 477f ca3e

conv2d/kernel f4 [1, 1, 1, 129]
-0.037573565 -0.00971184 -0.00014812114 -0.029089898 -0.005554952 -0.0013081909 -0.0035514333 -0.028008983
-0.016013663 -0.0035615985 -0.00044548634 0.04593267 -0.01845521 -0.020979116 -0.004374361 -0.00088556844
-0.0004972768 -0.0045768386 -0.0010103728 -0.0025473842 -0.0014580283 -0.0013897896 -0.032974645 -0.002900519
-0.002247987 -0.018344177 -0.030587874 -0.0010797624 -0.018687652 -0.03263679 -0.0026436823 -0.024308229
-0.0029291247 -0.002230719 -0.0016721892 -0.024816941 -0.0021324144 -0.0032666235 -0.009386377 -0.020717157
-0.001815203 -0.03584445 -0.016578985 -0.021662952 -0.028097473 -0.018377183 0.050391845 -0.015412588
-0.0011426653 -0.002730573 -0.002580948 -0.024564596 -0.031257305 -0.016091833 -0.03223166 -0.017800063
-0.02078778 -0.0286905 -0.030351022 -0.0012457848 -0.0036130443 -0.0020721299 -0.037948065 -0.0026228162
-0.0006327187 -0.030887604 -0.030649686 -0.0020941407 -0.025421478 -0.009510805 -0.009341593 -0.020240504
-0.033927802 -0.029646322 -0.0035281843 -0.01135669 -0.0021815621 -0.019038338 -0.002572842 -0.016400142
-0.01421009 -0.00089306745 -0.018132836 -0.03365008 -0.0035496631 -0.0041736127 -0.0042135613 -0.0023673805
-0.030551787 -0.028708432 -0.0035143497 -0.020739885 -0.0031210864 -0.0019985577 -0.002491675 -0.031903394
0.05974705 -0.020854356 -0.015850969 -0.0022878088 -0.0005884618 -0.0015012685 -0.01931253 0.038221855
-0.02362886 -0.0053951107 -0.025277363 -0.018167462 0.07547899 -0.024695467 -0.029666683 -0.029568719
-0.002641281 -0.001566851 -0.02715251 -0.020850193 -0.009934276 -0.02059336 -0.024492316 -0.021860244
-0.0028378186 -0.010214666 -0.0051846523 -0.00012778139 -0.020521397 -0.008353946 -0.029779479 -0.0017869202
-0.02411618
00000000: bde6 19bd 691e 1fbc f750 1bb9 f04d eebc
00000010: 5106 b6bb 9a77 abba 2abf 68bb 1873 e5bc
00000020: 162f 83bc b569 69bb 2a90 e9b9 e523 3c3d
00000030: 612f 97bc 65dc abbc cd56 8fbb 7e25 68ba
00000040: ae5b 02ba 4ef9 95bb 7c6e 84ba 04f2 26bb
00000050: 501b bfba 9a29 b6ba 6c10 07bd a216 3ebb
00000060: f752 13bb 8746 96bc 6c93 fabc d086 8dba
00000070: d916 99bc 28ae 05bd a141 2dbb 0d22 c7bc
00000080: 8ff6 3fbb 4131 12bb 5c2d dbba e64c cbbc
00000090: fabf 0bbb d914 56bb 52c9 19bc 07b7 a9bc
000000a0: 1bec edba a1d1 12bd a7d0 87bc 8176 b1bc
000000b0: ac2c e6bc bf8b 96bc ae67 4e3d 1485 7cbc
000000c0: 7cc5 95ba 6af3 32bb 1f25 29bb b13b c9bc
000000d0: a907 00bd 05d3 83bc 5805 04bd 70d1 91bc
000000e0: 224b aabc 5708 ebbc b5a2 f8bc 9a49 a3ba
000000f0: d3c8 6cbb 92cc 07bb 6e6f 1bbd 8ee3 2bbb
00000100: 08dd 25ba 0008 fdbc 0d15 fbbc da3d 09bb
00000110: b440 d0bc 35d3 1bbc 7b0d 19bc 6acf a5bc
00000120: e1f7 0abd d8dc f2bc 1c39 67bb 6911 3abc
00000130: 8af8 0ebb 4af6 9bbc 209d 28bb 9759 86bc
00000140: 70d1 68bc be1c 6aba 508b 94bc abd4 09bd
00000150: 77a1 68bb cdc2 88bb ea11 8abb 0e26 1bbb
00000160: be47 fabc f22d ebbc 0151 66bb b1e6 a9bc
00000170: 248b 4cbb 3cfa 02bb 5f4b 23bb 22ad 02bd
00000180: 53b9 743d c1d6 aabc e4d9 81bc 10ef 15bb
00000190: 0143 1aba 36c6 c4ba 5035 9ebc 858e 1c3d
000001a0: 5091 c1bc 78c9 b0bb 7912 cfbc eed3 94bc
000001b0: bb94 9a3d 264e cabc 8b07 f3bc 193a f2bc
000001c0: 5819 2dbb cc5e cdba f16e debc 06ce aabc
000001d0: 60c3 22bc 68b3 a8bc 1ca4 c8bc 4114 b3bc
000001e0: b2fa 39bb 6a5b 27bc 04e4 a9bb 0efd 05b9
000001f0: 7d1c a8bc fdde 08bc 18f4 f3bc 1837 eaba
00000200: 4c8f c5bc

conv2d_1/Conv2D_bias f4 [129]
0.06823405 0.06823439 1.1078161 1.0341377 1.1141869 0.05591065 1.117527 1.1409551
1.1141189 0.11891099 1.1021776 0.06267526 1.1238835 1.1325557 0.04161101 0.059060425
0.09285804 0.06823472 0.08194224 0.064638905 0.082156606 1.020213 0.06823541 1.1464322
0.068235315 0.03881246 0.97852916 1.1287783 0.3564701 1.1144918 0.0830219 0.070573695
0.071561106 0.1 0.14065589 0.08505936 1.1094489 1.1492788 0.06823398 0.09220798
1.1525805 0.08165047 1.1322274 0.041802965 1.1297908 0.094441205 1.1034427 1.0909029
1.0571637 0.06842701 1.1278044 1.0231041 0.06267531 0.062151056 0.055874806 1.0383052
1.11281 1.0974153 0.05812999 1.1185567 0.062228587 1.1302142 0.06263324 0.06827088
1.1381925 0.06143909 0.06178718 0.057769522 1.1033272 1.1072872 0.068235666 0.061079457
1.1134123 1.1255759 0.07641494 0.095180094 0.09458112 0.062336743 1.0802237 0.068234056
1.0634526 1.145632 1.1370667 0.08750045 1.1561564 1.0494456 1.1423393 0.06591672
0.09228764 1.1285179 1.1553962 0.05840244 0.1 0.1 0.0547414 0.07969985
0.068234 0.068234034 1.1405151 0.08608025 0.1 1.1053387 0.063286535 0.095070295
1.1390176 1.1080313 1.0745126 1.1597977 0.063108586 1.1526976 0.106937125 1.1435337
0.06310781 0.082133085 1.116212 0.06823401 1.1311579 1.107796 1.106285 1.1515551
0.06331752 1.135362 1.13561 0.08652688 0.094873816 0.084863134 1.1563058 1.1447048
1.0462289
00000000: 4bbe 8b3d 79be 8b3d ebcc 8d3f a05e 843f
00000010: ad9d 8e3f 9102 653d 200b 8f3f d10a 923f
00000020: 739b 8e3f 9b87 f33d 2814 8d3f e35b 803d
00000030: 6adb 8f3f 96f7 903f 4e70 2a3d 58e9 713d
00000040: 5b2c be3d a5be 8b3d 55d1 a73d 6761 843d
00000050: b941 a83d 5796 823f 02bf 8b3d 4abe 923f
00000060: f5be 8b3d d0f9 1e3d e380 7a3f cf7b 903f
00000070: 4083 b63e aba7 8e3f 6307 aa3d f188 903d
00000080: a18e 923d cdcc cc3d 1908 103e 9a33 ae3d
00000090: 6c02 8e3f 911b 933f 42be 8b3d 8ad7 bc3d
000000a0: c287 933f 5d38 a73d d4ec 903f 9639 2b3d
000000b0: fc9c 903f 646a c13d 9c3d 8d3f b5a2 8b3f
000000c0: 2451 873f 7623 8c3d e55b 903f 13f5 823f
000000d0: ea5b 803d 1b92 7e3d fbdc 643d 2fe7 843f
000000e0: 8f70 8e3f 1b78 8c3f b619 6e3d de2c 8f3f
000000f0: 67e3 7e3d dcaa 903f db45 803d 9ad1 8b3d
00000100: 4bb0 913f 8ea7 7b3d 8e14 7d3d bc9f 6c3d
00000110: d339 8d3f 96bb 8d3f 24bf 8b3d 742e 7a3d
00000120: 4b84 8e3f df12 903f 707f 9c3d c8ed c23d
00000130: bfb3 c13d d054 7f3d c544 8a3f 4cbe 8b3d
00000140: 371f 883f 12a4 923f 678b 913f 7033 b33d
00000150: effc 933f 3c54 863f 2d38 923f 58ff 863d
00000160: 4d01 bd3d 4673 903f 06e4 933f 6637 6f3d
00000170: cdcc cc3d cdcc cc3d 8538 603d ad39 a33d
00000180: 44be 8b3d 49be 8b3d 66fc 913f d84a b03d
00000190: cdcc cc3d bd7b 8d3f 5f9c 813d 37b4 c23d
000001a0: 54cb 913f f8d3 8d3f a189 893f 4074 943f
000001b0: 133f 813d 988b 933f da01 db3d 505f 923f
000001c0: ab3e 813d 6435 a83d 09e0 8e3f 46be 8b3d
000001d0: c8c9 903f 42cc 8d3f bf9a 8d3f 2866 933f
000001e0: 9eac 813d 8b53 913f ab5b 913f 0135 b13d
000001f0: 344d c23d b9cc ad3d d401 943f b085 923f
00000200: d4ea 853f

conv2d_1/kernel f4 [129, 1, 1, 129]
-0.12953144 -0.081841156 0.04197718 -0.016261943 -0.00640484 0.026061846 -0.013386617 0.0111027295
-0.010677228 -0.005056423 0.06581241 -0.07334819 0.0115049835 0.006719351 -0.08419014 -0.067451164
0.051758476 -0.004308787 0.022034818 -0.055321176 0.036714017 0.009875907 0.038107533 -0.08019184
0.054927 -0.011175861 -0.11069668 -0.037541233 -0.027425414 0.022792427 0.031013526 -0.097344585
0.018494118 -0.10624528 -0.026291138 -0.053649813 0.010482806 -0.024131617 -0.019658787 -0.0490274
-0.04657657 -0.004072463 -0.08942807 -0.009639802 -0.0030470048 -0.06382113 0.0020191765 -0.016359294
-0.018428992 -0.014119521 -0.07898803 -0.09344519 -0.07932016 -0.046121195 -0.057533775 0.07444361
-0.008272953 -0.037221145 -0.093796454 -0.025262082 -0.098849826 0.0004907915 -0.07951804 -0.024396244
-0.0120717725 0.017116515 0.025519324 0.01441225 -0.032298293 -0.058736343 -0.048295517 -0.014163749
-0.013151048 -0.027908295 -0.050533973 -0.01960034 -0.076990075 0.084412195 -0.02574174 0.05042255
-0.06180165 -0.01915298 -0.00293077 -0.037734665 -0.08433 -0.026485095 0.004391739 -0.059987888
-0.07491139 -0.12799174 -0.084364064 -0.08787842 0.009984162 -0.06423815 -0.11599716 0.03321484
-0.0070049725 -0.0056715203 -0.12664887 -0.04593291 -0.019266069 -0.04457708 -0.04456824 -0.087982476
0.041660406 -0.048514083 0.0011009515 -0.005734793 -0.0073605725 -0.11683706 -0.07819442 -0.057316437
-0.058763452 -0.06330695 -0.0062219054 -0.022828143 0.005079176 -0.003032145 0.04405528 -0.019570788
-0.057978548 -0.042488135 -0.078987725 -0.054780778 0.047483917 0.01531597 0.07124731 -0.018074442
-0.053635754 -0.035189457 0.0581572 0.024074165 -0.031199455 -0.07725046 -0.043330252 -0.031064156
-0.034459792 0.054698057 -0.037878428 -0.050766956 -0.014981069 -0.036297247 -0.04699084 -0.017289404
-0.07294019 0.034524884 0.07482926 -0.007395047 0.06959319 0.035142843 -0.0880008 0.0059328573
-0.0875393 0.029901722 -0.004559823 0.022488624 -0.06926033 0.023496635 -0.015920117 -0.057585724
-0.010639202 0.07071996 -0.025585685 -0.016476965 -0.0685955 0.017923098 0.029718176 0.018825086
0.09156015 0.027858598 -0.07053913 0.0024738188 -0.069056876 -0.023335753 -0.0022583446 0.0060826642
-0.043225527 -0.03852765 0.08785326 -0.031176928 -0.13171194 -0.06492874 -0.040192883 -0.03874437
-0.005749922 -0.08635595 -0.053750206 0.036526848 0.007618237 -0.015340201 0.014852174 -0.048312414
-0.020268343 0.08502351 -0.04023398 0.045532502 -0.0037123282 -0.08758315 -0.017175758 -0.01609375
-0.07024668 -0.0118267415 0.07176751 -0.0014463662 0.031310733 -0.0058362246 -0.026609406 -0.07179543
-0.032251276 -0.054546483 0.06921686 -0.06569521 0.012006256 -0.030642426 -0.0064822906 -0.056896985
-0.047745552 -0.08200534 -0.054846216 -0.020356093 0.0011352367 -0.0024434242 -0.044117637 0.052061655
-0.04669161 0.052478753 -0.05771483 -0.048082 -0.02679771 -0.032083374 -0.016504003 0.0787039
-0.065648355 -0.11538281 -0.008482954 -0.01831131 -0.010693132 -0.020104358 0.010775868 -0.058487102
-0.025012378 0.054385412 0.0029536567 -0.07364758 -0.042054586 -0.03072593 -0.008951526 -0.059720684
-0.04711687 -0.022564625 0.06221163 -0.051307965 0.00040402377 0.00990239 0.00626655 0.009441045
00000000: e4a3 04be 569c a7bd 43f0 2b3d c437 85bc
00000010: b1df d1bb a77f d53c 8b53 5bbc 39e8 353c
00000020: 8aef 2ebc 5ab0 a5bb a8c8 863d 9337 96bd
00000030: 667f 3c3c 002e dc3b e16b acbd d623 8abd
00000040: b200 543d ba30 8dbb 5d82 b43c 7598 62bd
00000050: 7061 163d 8ece 213c a516 1c3d 9f3b a4bd
00000060: 22fb 603d f51a 37bc f1b4 e2bd d6c4 19bd
00000070: 43ab e0bc 2fb7 ba3c 1410 fe3c 995c c7bd
00000080: fa80 973c 2097 d9bd 8360 d7bc e8bf 5bbd
00000090: 13c0 2b3c abaf c5bc 770b a1bc f4d0 48bd
000000a0: 13c7 3ebd 4c72 85bb 1026 b7bd 43f0 1dbc
000000b0: 42b0 47bb a7b4 82bd 2954 043b ed03 86bc
000000c0: 66f8 96bc 9055 67bc 7ac4 a1bd 3160 bfbd
000000d0: 9c72 a2bd 94e9 3cbd 89a8 6bbd e475 983d
000000e0: 488b 07bc 3375 18bd 5b18 c0bd 6df2 cebc
000000f0: c771 cabd 76a8 003a 5bda a2bd a2da c7bc
00000100: afc8 45bc ef37 8c3c e70d d13c 5c21 6c3c
00000110: 374b 04bd 8595 70bd 85d1 45bd 120f 68bc
00000120: 7e77 57bc f09f e4bc b6fc 4ebd e490 a0bc
00000130: f9ac 9dbd 4de0 ac3d 57e0 d2bc e087 4e3d
00000140: ba23 7dbd b6e6 9cbc 2912 40bb aa8f 1abd
00000150: 35b5 acbd 45f7 d8bc 94e8 8f3b dcb5 75bd
00000160: 256b 99bd 4410 03be 11c7 acbd 9af9 b3bd
00000170: 9c94 233c 4b8f 83bd eb8f edbd 490c 083d
00000180: f889 e5bb 29d8 b9bb 3eb0 01be 2624 3cbd
00000190: e0d3 9dbc 7596 36bd 308d 36bd 2830 b4bd
000001a0: 1aa4 2a3d b4b6 46bd cd4d 903a eeea bbbb
000001b0: f530 f1bb 4548 efbd 6524 a0bd a4c4 6abd
000001c0: f2b1 70bd 13a7 81bd 20e1 cbbb 1602 bbbc
000001d0: 376f a63b f4b6 46bb 4f73 343d eb52 a0bc
000001e0: ea7a 6dbd 0a08 2ebd 51c4 a1bd cf61 60bd
000001f0: 7f7e 423d d6ef 7a3c 1cea 913d da10 94bc
00000200: 2ab1 5bbd d222 10bd 3f36 6e3d 2f37 c53c
00000210: 0096 ffbc 7d35 9ebd 107b 31bd 427a febc
00000220: b625 0dbd 120b 603d 6926 1bbd 03f1 4fbd
00000230: 2873 75bc 6cac 14bd 7879 40bd 82a2 8dbc
00000240: ab61 95bd f769 0d3d 1540 993d 2752 f2bb
00000250: e086 8e3d f1f1 0f3d c339 b4bd 6a68 c23b
00000260: ce47 b3bd 75f4 f43c 916a 95bb 103a b83c
00000270: 5cd8 8dbd 047c c03c e86a 82bc 02df 6bbd
00000280: 0c50 2ebc a0d5 903d 1299 d1bc b3fa 86bc
00000290: cc7b 8cbd 76d3 923c 8873 f33c 1137 9a3c
000002a0: e383 bb3d b737 e43c d276 90bd cb1f 223b
000002b0: b16d 8dbd 9f2a bfbc bc00 14bb 1651 c73b
000002c0: 400d 31bd 2bcf 1dbd 69ec b33d c266 ffbc
000002d0: 7fdf 06be 5cf9 84bd 4ba1 24bd 6bb2 1ebd
000002e0: d769 bcbb 63db b0bd 2d29 5cbd 2d9d 153d
000002f0: 67a2 f93b 7755 7bbc 8856 733c 3de3 45bd
00000300: cc09 a6bc ce20 ae3d 63cc 24bd 4a80 3a3d
00000310: 884a 73bb cb5e b3bd 2db4 8cbc 0ad7 83bc
00000320: 7edd 8fbd f3c4 41bc d8fa 923d ff93 bdba
00000330: af3f 003d cd3d bfbb f8fb d9bc 7b09 93bd
00000340: ea19 04bd 226c 5fbd 92c1 8d3d 368b 86bd
00000350: e3b5 443c d305 fbbc 6569 d4bb d00c 69bd
00000360: d790 43bd 6af2 a7bd 6da6 60bd d2c1 a6bc
00000370: 39cc 943a db21 20bb b2b4 34bd 9a3e 553d
00000380: b43f 3fbd f6f3 563d 6366 6cbd a2f1 44bd
00000390: df86 dbbc db69 03bd 6733 87bc 832f a13d
000003a0: a572 86bd d34d ecbd 17fc 0abc 9a01 96bc
000003b0: 3f32 2fbc e5b1 a4bc 448d 303c 2c90 6fbd
000003c0: c2e6 ccbc 3dc3 5e3d 2392 413b 8bd4 96bd
000003d0: 6e41 2cbd f2b4 fbbc 6ca9 12bc ad9d 74bd
000003e0: 9efd 40bd 73d9 b8bc 9fd1 7e3d 4d28 52bd
000003f0: 27d3 d339 a23d 223c a257 cd3b 9dae 1a3c

dense/MatMul_bias f4 [30]
1.2881734 0.09005262 0.1 0.092150524 0.09322368 1.2435278 1.2581506 0.1
1.2406417 1.0593321 0.08763047 1.2834038 1.3039482 0.09399452 0.1 0.082763165
1.3060423 0.090246625 1.3037633 1.2673824 1.289484 1.2999117 0.09399454 0.08998455
0.094441175 1.3028661 0.09256015 0.1 0.09169045 0.09306887
00000000: dee2 a43f 826d b83d cdcc cc3d 6ab9 bc3d
00000010: 0fec be3d eb2b 9f3f 140b a13f cdcc cc3d
00000020: 59cd 9e3f 3298 873f 9b77 b33d 9346 a43f
00000030: c6e7 a63f 3380 c03d cdcc cc3d bc7f a93d
00000040: 652c a73f 39d3 b83d b7e1 a63f 9639 a23f
00000050: d00d a53f 8263 a63f 3680 c03d d249 b83d
00000060: 606a c13d 51c4 a63f 2d90 bd3d cdcc cc3d
00000070: 34c8 bb3d e49a be3d

dense/kernel/transpose f4 [30, 258]
0.00087358075 0.0833263 0.15967275 0.17093572 0.13035764 -0.021745907 0.17285916 0.15067695
0.22050114 -0.091308154 0.2020097 -0.009282882 0.2160402 0.23670635 0.0030458772 0.007799815
-0.05572109 0.009907522 -0.00419455 -0.07506764 0.01377555 0.16816574 -0.08123235 0.23432049
0.047434468 -0.05641305 0.27230567 0.13783634 -0.013082094 0.21797802 0.01897694 -0.04789755
0.06906443 -0.05644492 -0.042011652 -0.01811351 0.16033888 0.18679908 0.07727246 -0.056297373
0.16713086 -0.022720946 0.14963248 0.03777853 0.16081193 -0.041173603 0.20799752 0.1399514
0.10688784 0.058294576 0.1646004 0.15108413 0.069150664 -0.054621316 0.08340896 0.15749516
0.22189389 0.18743512 0.03317573 0.19619086 -0.06821387 0.2791835 0.00095170335 0.06725965
0.26361656 0.029722854 -0.032282386 -0.052525293 0.18029726 0.19765843 -0.060276695 0.0148906885
0.15227334 0.119495705 0.04576446 -0.00471724 -0.010818975 -0.054920062 0.16740789 0.0071576396
0.14866966 0.20147021 0.14596426 0.032105476 0.23974143 0.07774604 0.20562148 0.09935535
-0.017757956 0.19774342 0.27446312 0.00938659 0.0121859675 -0.080111206 -0.012015931 0.048000608
-0.014841055 -0.02030531 0.2662712 -0.04062152 -0.07318533 0.26515716 -0.001153756 0.028004745
0.19137928 0.2572602 0.16674411 0.23740242 -0.060684647 0.26108778 0.027696235 0.12084544
0.027640093 0.052197076 0.16775534 0.013479958 0.1722017 0.11626637 0.15668023 0.28516465
0.0019616864 0.24758397 0.18546422 -0.081904866 -0.03466969 0.059455954 0.1872417 0.1299772
0.18925647 -0.04991032 0.016069995 0.07469866 -0.06625801 0.07867006 0.02383285 0.09445917
0.050756883 0.07220161 -0.019702105 0.1020226 0.038384035 0.09037069 0.06342348 -0.050488573
0.028730448 0.036841057 0.03243305 0.07219125 -0.09109173 -0.006855288 -0.00031553896 -0.050757058
0.09031201 -0.09246881 0.0108625805 -0.01306459 0.032875117 0.086083844 -0.037322134 -0.092037454
0.0422742 0.0349633 0.02977092 0.043104146 0.031511284 0.023095764 0.08592547 -0.035684735
-0.024504116 0.14681467 -0.016998308 0.07536027 -0.0038219583 0.105471194 -0.014990634 -0.03298642
0.036693867 0.044785492 0.00015379197 0.055372447 -0.082588516 0.058490936 0.0338559 -0.015491989
0.00047873342 0.004290724 -0.027453052 0.039768692 0.054670535 -0.010828825 0.023792796 -0.07995015
-0.061395183 0.13340981 -0.005040901 0.03721164 -0.03666869 0.06735571 0.032233734 -0.04796167
-0.019530574 0.062195245 0.051747195 0.06319818 -0.054150447 0.017170487 0.014110055 0.02472986
0.022719365 -0.029075367 0.090002 0.085517295 -0.00013241051 0.049848452 0.026596276 0.13074717
0.056730524 0.01961337 0.046207342 0.14945152 -0.030654859 -0.058579125 0.02530633 0.017482951
-0.037068564 -0.016924912 -0.116908595 0.08200699 -0.04624035 0.030475799 -0.049170315 0.018172389
0.023559067 0.026784213 -0.025207696 -0.08367383 0.14278765 -0.018416595 0.12701541 0.049640078
0.06735458 0.042429987 -0.03932263 0.049621515 -0.03848612 0.054126807 0.034080606 0.10408298
0.11744858 -0.038186863 0.1474158 0.06269464 -0.040144455 0.018475026 0.019007394 0.08011915
00000000: 0301 653a fba6 aa3d 4181 233e c609 2f3e
00000010: 797c 053e 7924 b2bc fe01 313e 0f4b 1a3e
00000020: 0dcb 613e c5ff babd a1db 4e3e 3b17 18bc
00000030: a439 5d3e 2663 723e 579d 473b 9795 ff3b
00000040: cc3b 64bd 2953 223c 7072 89bb 10bd 99bd
00000050: d8b2 613c a433 2c3e 255d a6bd b6f1 6f3e
00000060: a54a 423d 5f11 67bd a66b 8b3e f824 0d3e
00000070: 4756 56bc a135 5f3e 8775 9b3c 3930 44bd
00000080: a771 8d3d ca32 67bd 6914 2cbd c962 94bc
00000090: e02f 243e 4248 3f3e 0641 9e3d 1398 66bd
000000a0: 5a24 2b3e 4721 babc 4239 193e a9bd 1a3d
000000b0: e2ab 243e a7a5 28bd 4dfd 543e 6b4f 0f3e
000000c0: 03e8 da3d 4bc6 6e3d 028d 283e ccb5 1a3e
000000d0: dd9e 8d3d 9aba 5fbd 51d2 aa3d 6946 213e
000000e0: 2738 633e feee 3f3e 46e3 073d 42e6 483e
000000f0: b7b3 8bbd 24f1 8e3e bb7b 793a 6dbf 893d
00000100: c0f8 863e 587d f33c 893a 04bd c324 57bd
00000110: d89f 383e f966 4a3e b2e4 76bd 13f8 733c
00000120: 8bed 1b3e 2aba f43d 8473 3b3d 1493 9abb
00000130: 1242 31bc dcf3 60bd f96c 2b3e a28a ea3b
00000140: dc3c 183e 354e 4e3e a877 153e 0881 033d
00000150: c77e 753e 5139 9f3d 708e 523e d17a cb3d
00000160: 2279 91bc 407d 4a3e 6e86 8c3e 36ca 193c
00000170: a7a7 473c 5811 a4bd 78de 44bc 499c 443d
00000180: e527 73bc 5257 a6bc b354 883e c062 26bd
00000190: 31e2 95bd aec2 873e a139 97ba 356a e53c
000001a0: eef8 433e 9cb7 833e f8be 2a3e 9f19 733e
000001b0: 7790 78bd 4cad 853e 37e3 e23c d07d f73d
000001c0: 7a6d e23c 9acc 553d 0ec8 2b3e 0bdb 5c3c
000001d0: a455 303e 101d ee3d c870 203e 1a01 923e
000001e0: a38f 003b a786 7d3e 55ea 3d3e bdbd a7bd
000001f0: ce01 0ebd 1688 733d 4abc 3f3e be18 053e
00000200: 73cc 413e c46e 4cbd 39a5 833c 9cfb 983d
00000210: 48b2 87bd c51d a13d 1c3d c33c cf73 c13d
00000220: 73e6 4f3d 70de 933d 4f66 a1bc 3af1 d03d
00000230: 9438 1d3d 4514 b93d 2be4 813d 1bcd 4ebd
00000240: 1e5c eb3c a6e6 163d 85d8 043d 02d9 933d
00000250: 4d8e babd 53a2 e0bb ec6e a5b9 a2e6 4fbd
00000260: 81f5 b83d 4a60 bdbd f7f8 313c dd0c 56bc
00000270: 0fa8 063d ba4c b03d 18df 18bd 227e bcbd
00000280: b627 2d3d ad35 0f3d 25e2 f33c f98d 303d
00000290: fa11 013d 5433 bd3c b1f9 af3d 282a 12bd
000002a0: dbbc c8bc 9656 163e 0940 8bbc 7c56 9a3d
000002b0: d279 7abb 4801 d83d 479b 75bc c51c 07bd
000002c0: 4f4c 163d fe70 373d 3843 2139 38ce 623d
000002d0: 2b24 a9bd 3194 6f3d 7cac 0a3d 1dd2 7dbc
000002e0: 83fe fa39 3499 8c3b 39e5 e0bc 7fe4 223d
000002f0: 36ee 5f3d 626b 31bc 1ce9 c23c e7bc a3bd
00000300: 8479 7bbd 959c 083e 242e a5bb 3c6b 183d
00000310: e931 16bd caf1 893d 8507 043d 7573 44bd
00000320: 95fe 9fbc 71c0 7e3d def4 533d 0c6e 813d
00000330: dccc 5dbd 1fa9 8c3c dc2d 673c 4696 ca3c
00000340: f61d ba3c 772f eebc f852 b83d b123 af3d
00000350: add7 0ab9 e42d 4c3d 6fe0 d93c 96e2 053e
00000360: 445e 683d 38ac a03c e943 3d3d d209 193e
00000370: e61f fbbc aaf0 6fbd 384f cf3c 6838 8f3c
00000380: 35d5 17bd 1da6 8abc c66d efbd 48f3 a73d
00000390: 8566 3dbd 62a8 f93c d066 49bd 43de 943c
000003a0: f2fe c03c 916a db3c 5f80 cebc 2f5d abbd
000003b0: ed36 123e 66de 96bc 5410 023e 6553 4b3d
000003c0: 33f1 893d 11cb 2d3d c410 21bd ee3f 4b3d
000003d0: 9fa3 1dbd 12b4 5d3d 1b98 0b3d 7529 d53d
000003e0: e288 f03d d469 1cbd 2bf4 163e 0c66 803d
000003f0: 836e 24bd f058 973c 65b5 9b3c 8215 a43d

dense_1/MatMul_bias f4 [30]
0.08987931 0.091178685 0.10600546 1.3976699 0.08374969 0.08662761 0.09399454 0.09399452
1.4254863 1.1213528 0.8648037 0.1 0.09399452 0.1 1.1469777 1.4446112
0.090757936 1.3716167 0.09168766 0.086598136 1.1843162 1.3639975 0.093298934 0.09138008
0.9170585 1.233234 0.1 1.398497 0.088416696 1.4197308
00000000: a512 b83d e4bb ba3d 6419 d93d d9e6 b23f
00000010: f584 ab3d d169 b13d 3680 c03d 3380 c03d
00000020: 5676 b63f 7d88 8f3f c663 5d3f cdcc cc3d
00000030: 3380 c03d cdcc cc3d 2ad0 923f 05e9 b83f
00000040: 4cdf b93d 2391 af3f bdc6 bb3d 5d5a b13d
00000050: ac97 973f 7897 ae3f 8313 bf3d 7b25 bb3d
00000060: 59c4 6a3f 9dda 9d3f cdcc cc3d f301 b33f
00000070: d013 b53d bdb9 b53f

dense_1/kernel/transpose f4 [30, 30]
-0.10838423 0.06760563 -0.050228942 -0.040616915 0.020942701 0.016498132 -0.07754542 -0.07900872
0.03509305 0.007063326 0.07859457 0.057948597 0.02038525 0.014429139 0.03767422 0.059561744
0.06651657 -0.054360043 0.008734315 -0.03574908 -0.014375276 -0.026211947 -0.023307534 0.03937714
0.033595912 -0.018185074 -0.044165015 -0.014244534 0.060010068 -0.00019905217 -0.06344817 0.030643567
0.040534202 -0.013959529 0.01778512 -0.04044245 -0.02273725 0.07844994 0.021830378 0.018634828
-0.07584632 -0.057164453 0.0005037562 0.042275194 -0.036019657 -0.004699265 -0.016949339 0.067974955
0.028994596 -0.01946699 -0.004649883 -0.023863768 -0.03188964 0.0056460453 0.052320786 -0.024594244
-0.0069987467 -0.029736653 -0.04170834 0.0050755655 -0.012453181 0.09910824 -0.031240255 0.046511617
0.0955725 0.023758063 -0.03951417 -0.0403655 -0.044644143 0.05267918 -0.02643597 -0.09945925
-0.07644228 -0.0007976584 -0.024727812 -0.014733684 -0.053577848 0.03434095 -0.06814689 0.025728237
0.0068709613 0.06741599 -0.09184003 0.06488118 0.02396479 0.0053630066 -0.031457346 -0.09999754
0.03774579 0.026070163 0.07348275 0.033038355 -0.021437485 0.010225924 -0.07662118 0.04622481
0.15761086 -0.058282174 0.11801297 -0.014631277 0.03410987 0.17955695 0.109252065 -0.025624553
-0.005247882 0.012633103 0.18619458 -0.08723306 0.13302732 0.08975532 0.03408705 0.18217641
-0.022936637 -0.043155067 0.014124031 0.14062268 0.06769316 -0.0050165425 0.018051622 0.005080364
-0.02842182 0.04026999 -0.0070311576 -0.010320404 -0.093747705 0.049536746 0.012615385 0.034278095
0.0042150505 -0.0075906725 0.004811865 -0.047526844 -0.116580345 0.019169703 0.055161085 0.03660896
0.035260595 -0.020227822 -0.044992305 -0.03594245 0.02165693 0.05455249 0.03520196 -0.014244141
0.050469954 -0.01665832 -0.0075139133 0.07890449 -0.054676812 0.03021451 -0.04253462 0.08966952
0.013468838 -0.022435606 0.015366809 0.018944042 -0.016862612 -0.049665164 0.036425218 -0.062647685
0.019574149 -0.044670574 0.059082605 0.09203442 0.036636923 -0.06544536 -0.09144985 0.008958942
-0.0013800082 0.0065094 0.004651933 -0.059811186 -0.06218993 0.050384272 0.044440854 0.04552484
0.014101504 0.028576825 0.047431596 -0.03218411 0.016519126 0.011469197 -0.048484437 -0.052848272
-0.024948368 -0.10419979 -0.063985124 0.0067999507 -0.036732092 -0.045876436 0.06567867 -0.010355771
-0.06010274 0.083316885 0.0052815042 -0.03372347 0.015048189 0.02715433 -0.02996075 -0.0012886445
-0.05390214 -0.020332508 0.032648806 0.009684255 -0.018877154 0.031720195 0.03622287 0.045605112
0.032349337 0.00015138996 -0.06941578 -0.02189465 -0.0091851605 0.022645256 0.05907449 0.06986236
0.01871486 0.048222933 0.0041549383 -0.015494653 -0.040480915 0.027533079 -0.03951307 -0.0151650775
-0.034049116 -0.027799556 0.004461957 -0.0130384555 -0.015104407 -0.00027932625 0.025179079 -0.08532887
0.0074375393 0.0071889814 0.017046051 -0.03772093 0.003986048 0.025114048 -0.06369873 0.047262937
0.23056588 -0.0483762 -0.022480374 -0.07648968 0.061127964 0.0595407 0.17501827 -0.05747689
0.071986824 -0.03768692 -0.017252814 0.23340115 0.19461516 0.052492056 -0.04885867 0.016258478
00000000: 8df8 ddbd d274 8a3d ddbc 4dbd ec5d 26bd
00000010: 0790 ab3c 1727 873c 22d0 9ebd 53cf a1bd
00000020: bbbd 0f3d 7973 e73b 31f6 a03d 825b 6d3d
00000030: f8fe a63c 3268 6c3c 4850 1a3d 04f7 733d
00000040: d739 883d a3a8 5ebd 5f1a 0f3c a16d 12bd
00000050: 4786 6bbc 70ba d6bc 71ef bebc ed49 213d
00000060: de9b 093d ddf8 94bc 60e6 34bd e861 69bc
00000070: 1ecd 753d a9b8 50b9 1df1 81bd 3808 fb3c
00000080: 3107 263d 82b6 64bc 1ab2 913c fca6 25bd
00000090: 7843 babc 5daa a03d 9fd5 b23c 11a8 983c
000000a0: 5155 9bbd 4625 6abd 820e 043a c128 2d3d
000000b0: 5989 13bd 4bfc 99bb 57d9 8abc 7436 8b3d
000000c0: 1386 ed3c 3d79 9fbc 0c5e 98bb f37d c3bc
000000d0: b69e 02bd 7602 b93b 524e 563d de79 c9bc
000000e0: be55 e5bb 489a f3bc 5dd6 2abd ee50 a63b
000000f0: 6d08 4cbc 43f9 ca3d 90eb ffbc f782 3e3d
00000100: 84bb c33d 45a0 c23c 9cd9 21bd 4b56 25bd
00000110: c7dc 36bd 20c6 573d 3f90 d8bc 4bb1 cbbd
00000120: c58d 9cbd f319 51ba fb91 cabc 8d65 71bc
00000130: 7274 5bbd 19a9 0c3d 9990 8bbd 06c4 d23c
00000140: cd25 e13b 6511 8a3d a016 bcbd 6de0 843d
00000150: cf51 c43c 29bc af3b 6bd9 00bd 83cb ccbd
00000160: 549b 1a3d 1891 d53c 207e 963d 3a53 073d
00000170: aa9d afbc a28a 273c 91eb 9cbd 3a56 3d3d
00000180: be64 213e 4ab9 6ebd c9b0 f13d 06b8 6fbc
00000190: cbb6 0b3d c7dd 373e 8cbf df3d 95ea d1bc
000001a0: 6df6 abbb 13fb 4e3c cba9 3e3e 3fa7 b2bd
000001b0: 5038 083e a3d1 b73d dd9e 0b3d 748c 3a3e
000001c0: 9de5 bbbc 5ec3 30bd 7b68 673c 64ff 0f3e
000001d0: b6a2 8a3d cf61 a4bb ffe0 933c 2f79 a63b
000001e0: e0d4 e8bc 25f2 243d a065 e6bb e916 29bc
000001f0: ccfe bfbd 0be7 4a3d c3b0 4e3c 3067 0c3d
00000200: 681e 8a3b 2dbb f8bb d9ac 9d3b 82ab 42bd
00000210: adc1 eebd c809 9d3c 97f0 613d 47f3 153d
00000220: 6a6d 103d d1b4 a5bc da49 38bd 6438 13bd
00000230: e069 b13c 6f72 5f3d ee2f 103d 4260 69bc
00000240: 95b9 4e3d 0777 88bc 4637 f6bb ad98 a13d
00000250: cbf4 5fbd 6c84 f73c c838 2ebd a7a4 b73d
00000260: 67ac 5c3c e0ca b7bc 12c5 7b3c 8930 9b3c
00000270: 7623 8abc b36d 4bbd 9c32 153d 6e4d 80bd
00000280: f759 a03c 7ef8 36bd 9a00 723d 8b7c bc3d
00000290: 9910 163d 3808 86bd 0f4a bbbd 87c8 123c
000002a0: 64e1 b4ba ce4c d53b 3e6f 983b 93fc 74bd
000002b0: deba 7ebd bd5f 4e3d 9d07 363d 4178 3a3d
000002c0: ff09 673c f219 ea3c a247 423d 7cd3 03bd
000002d0: 1e53 873c 4de9 3b3c 9e97 46bd 6e77 58bd
000002e0: 8560 ccbc b366 d5bd a20a 83bd 1fd2 de3b
000002f0: 6474 16bd eee8 3bbd 8a82 863d 40ab 29bc
00000300: 4a2e 76bd 0ba2 aa3d 7810 ad3b 9f21 0abd
00000310: ae8c 763c c272 de3c 3f70 f5bc bce7 a8ba
00000320: 7ec8 5cbd 5c90 a6bc c1ba 053d b6aa 1e3c
00000330: 43a4 9abc 09ed 013d 6f5e 143d 6dcc 3a3d
00000340: bd80 043d 6fbe 1e39 dc29 8ebd 695c b3bc
00000350: 5b7d 16bc 8b82 b93c 18f8 713d ff13 8f3d
00000360: e84f 993c 6985 453d 2626 883b 49dd 7dbc
00000370: 51cf 25bd 0d8d e13c 75d8 21bd f276 78bc
00000380: 1677 0bbd e5bb e3bc 9c35 923b 3f9f 55bc
00000390: 7a78 77bc 8972 92b9 5b44 ce3c e7c0 aebd
000003a0: 9ab6 f33b 8c91 eb3b 29a4 8b3c 4381 1abd
000003b0: 659d 823b fabb cd3c 7b74 82bd c896 413d
000003c0: 7619 6c3e 1f26 46bd c328 b8bc 9fa6 9cbd
000003d0: 5161 7a3d f3e0 733d fd37 333e e36c 6bbd
000003e0: d46d 933d 9a5d 1abd c655 8dbc b600 6f3e
000003f0: 3249 473e e901 573d 0720 48bd 8030 853c

dense_2/kernel/transpose f4 [1, 30]
-0.069631495 -0.051556174 0.007697124 0.1350042 -0.005177713 0.00029466677 0.0012375539 -0.046669427
0.19013238 -0.0011570202 0.00021552375 0.0078044035 -0.07865886 -0.06800323 -0.00020868304 0.25331032
-0.021762524 0.09753456 -0.0095217535 -0.015287614 0.0008056537 0.08679391 0.0044316174 -0.0037972957
-0.011839091 0.00078893267 0.018108841 0.12841564 -0.038744904 0.1688409
00000000: f59a 8ebd 912c 53bd 2838 fc3b 8a3e 0a3e
00000010: cea9 a9bb 817d 9a39 6b35 a23a 7128 3fbd
00000020: 10b2 423e 28a7 97ba 37fe 6139 15bc ff3b
00000030: e517 a1bd 4745 8bbd edd1 5ab9 e4b1 813e
00000040: 5247 b2bc 33c0 c73d 2101 1cbc e778 7abc
00000050: 8132 533a 01c1 b13d 1a37 913b 0ddc 78bb
00000060: bff8 41bc 60d0 4e3a fe58 943c 647f 033e
00000070: fab2 1ebd a1e4 2c3e
